…
2023-11-14 20:48:19.391266: I tensorflow/core/platform/cpu_feature_guard.cc:182] This TensorFlow binary is optimized to use available CPU instructions in performance-critical operations.
To enable the following instructions: SSE SSE2 SSE3 SSE4.1 SSE4.2 AVX AVX2 AVX_VNNI FMA, in other operations, rebuild TensorFlow with the appropriate compiler flags.
Model: "model"
_________________________________________________________________
 Layer (type)                Output Shape              Param #
=================================================================
 input_1 (InputLayer)        [(None, 100, 100, 3)]     0

 block1_conv1 (Conv2D)       (None, 100, 100, 64)      1792

 block1_conv2 (Conv2D)       (None, 100, 100, 64)      36928

 block1_pool (MaxPooling2D)  (None, 50, 50, 64)        0

 block2_conv1 (Conv2D)       (None, 50, 50, 128)       73856

 block2_conv2 (Conv2D)       (None, 50, 50, 128)       147584

 block2_pool (MaxPooling2D)  (None, 25, 25, 128)       0

 block3_conv1 (Conv2D)       (None, 25, 25, 256)       295168

 block3_conv2 (Conv2D)       (None, 25, 25, 256)       590080

 block3_conv3 (Conv2D)       (None, 25, 25, 256)       590080

 block3_pool (MaxPooling2D)  (None, 12, 12, 256)       0

 block4_conv1 (Conv2D)       (None, 12, 12, 512)       1180160

 block4_conv2 (Conv2D)       (None, 12, 12, 512)       2359808

 block4_conv3 (Conv2D)       (None, 12, 12, 512)       2359808

 block4_pool (MaxPooling2D)  (None, 6, 6, 512)         0

 block5_conv1 (Conv2D)       (None, 6, 6, 512)         2359808

 block5_conv2 (Conv2D)       (None, 6, 6, 512)         2359808

 block5_conv3 (Conv2D)       (None, 6, 6, 512)         2359808

 block5_pool (MaxPooling2D)  (None, 3, 3, 512)         0

 flatten (Flatten)           (None, 4608)              0

 dense (Dense)               (None, 8)                 36872

=================================================================
Total params: 14751560 (56.27 MB)
Trainable params: 36872 (144.03 KB)
Non-trainable params: 14714688 (56.13 MB)
_________________________________________________________________
Found 2576 images belonging to 8 classes.
{'apar': 0, 'kelas': 1, 'koridor': 2, 'lift': 3, 'orang': 4, 'pintu_darurat': 5, 'pintu_ruang': 6, 'tangga': 7}
Found 5839 images belonging to 8 classes.
…
